{"class_name": "Sequential", "config": {"name": "sequential_7", "layers": [{"class_name": "LSTM", "config": {"name": "lstm_19", "trainable": true, "batch_input_shape": [50, 48, 2], "dtype": "float64", "return_sequences": true, "return_state": false, "go_backwards": false, "stateful": false, "unroll": false, "units": 120, "activation": "tanh", "recurrent_activation": "sigmoid", "use_bias": true, "kernel_initializer": {"class_name": "RandomNormal", "config": {"mean": 0.0, "stddev": 0.1, "seed": null}}, "recurrent_initializer": {"class_name": "Orthogonal", "config": {"gain": 1.0, "seed": null}}, "bias_initializer": {"class_name": "Zeros", "config": {}}, "unit_forget_bias": true, "kernel_regularizer": null, "recurrent_regularizer": null, "bias_regularizer": null, "activity_regularizer": null, "kernel_constraint": null, "recurrent_constraint": null, "bias_constraint": null, "dropout": 0.0, "recurrent_dropout": 0.5, "implementation": 2}}, {"class_name": "LSTM", "config": {"name": "lstm_20", "trainable": true, "batch_input_shape": [50, 48, 2], "dtype": "float64", "return_sequences": true, "return_state": false, "go_backwards": false, "stateful": false, "unroll": false, "units": 120, "activation": "tanh", "recurrent_activation": "sigmoid", "use_bias": true, "kernel_initializer": {"class_name": "RandomNormal", "config": {"mean": 0.0, "stddev": 0.3, "seed": null}}, "recurrent_initializer": {"class_name": "Orthogonal", "config": {"gain": 1.0, "seed": null}}, "bias_initializer": {"class_name": "Zeros", "config": {}}, "unit_forget_bias": true, "kernel_regularizer": null, "recurrent_regularizer": null, "bias_regularizer": null, "activity_regularizer": null, "kernel_constraint": null, "recurrent_constraint": null, "bias_constraint": null, "dropout": 0.0, "recurrent_dropout": 0.5, "implementation": 2}}, {"class_name": "LSTM", "config": {"name": "lstm_21", "trainable": true, "batch_input_shape": [50, 48, 2], "dtype": "float64", "return_sequences": false, "return_state": false, "go_backwards": false, "stateful": false, "unroll": false, "units": 120, "activation": "tanh", "recurrent_activation": "sigmoid", "use_bias": true, "kernel_initializer": {"class_name": "RandomNormal", "config": {"mean": 0.0, "stddev": 0.5, "seed": null}}, "recurrent_initializer": {"class_name": "Orthogonal", "config": {"gain": 1.0, "seed": null}}, "bias_initializer": {"class_name": "Zeros", "config": {}}, "unit_forget_bias": true, "kernel_regularizer": null, "recurrent_regularizer": null, "bias_regularizer": null, "activity_regularizer": null, "kernel_constraint": null, "recurrent_constraint": null, "bias_constraint": null, "dropout": 0.0, "recurrent_dropout": 0.5, "implementation": 2}}, {"class_name": "Dense", "config": {"name": "dense_7", "trainable": true, "dtype": "float64", "units": 96, "activation": "linear", "use_bias": true, "kernel_initializer": {"class_name": "RandomNormal", "config": {"mean": 0.0, "stddev": 0.2, "seed": null}}, "bias_initializer": {"class_name": "Zeros", "config": {}}, "kernel_regularizer": null, "bias_regularizer": null, "activity_regularizer": null, "kernel_constraint": null, "bias_constraint": null}}]}, "keras_version": "2.3.1", "backend": "tensorflow"}